…
Train loss : 1.0099	Train SE : 0.5255	Train SP : 0.6395	Train Score : 0.5825	Train Acc : 0.5828
Val loss : 1.3140	Val SE : 0.4029	Val SP : 0.4199	Val Score : 0.4114	Val Acc : 0.4126
best icbhi score is 0.4500
[[1167  298    3   51]
 [ 481  150    0   18]
 [ 292   81    0   14]
 [ 101   28    0    4]]
Namespace(batch_size=32, classweight='true', comment='V3.24.0', data_aug=True, debug=False, decay_epoch=None, decay_rates=None, dropout=0.3, gpu=0, input='../analysis/pack/wavelet_stft_train.p', lr=0.0001, nepochs=200, save='log/report/V3.24.0', size=128, size_m=56, test='../analysis/pack/wavelet_stft_test.p', test_batch_size=128, weight_decay=0)
BilinearCNN(
  (conv0): Conv2d(1, 64, kernel_size=(3, 3), stride=(1, 1))
  (conv1): Conv2d(1, 64, kernel_size=(3, 3), stride=(1, 1))
  (ResNet_0_0): ResBlock(
    (norm1): GroupNorm(32, 64, eps=1e-05, affine=True)
    (droupout): Dropout(p=0.3, inplace=False)
    (relu): ReLU(inplace=True)
    (downsample): Conv2d(64, 64, kernel_size=(1, 1), stride=(2, 2), bias=False)
    (conv1): Conv2d(64, 64, kernel_size=(3, 3), stride=(2, 2), padding=(1, 1), bias=False)
    (norm2): GroupNorm(32, 64, eps=1e-05, affine=True)
    (conv2): Conv2d(64, 64, kernel_size=(3, 3), stride=(1, 1), padding=(1, 1), bias=False)
  )
  (ResNet_0_1): ResBlock(
    (norm1): GroupNorm(32, 64, eps=1e-05, affine=True)
    (droupout): Dropout(p=0.3, inplace=False)
    (relu): ReLU(inplace=True)
    (downsample): Conv2d(64, 64, kernel_size=(1, 1), stride=(2, 2), bias=False)
    (conv1): Conv2d(64, 64, kernel_size=(3, 3), stride=(2, 2), padding=(1, 1), bias=False)
    (norm2): GroupNorm(32, 64, eps=1e-05, affine=True)
    (conv2): Conv2d(64, 64, kernel_size=(3, 3), stride=(1, 1), padding=(1, 1), bias=False)
  )
  (ResNet_1_0): ResBlock(
    (norm1): GroupNorm(32, 64, eps=1e-05, affine=True)
    (droupout): Dropout(p=0.3, inplace=False)
    (relu): ReLU(inplace=True)
    (downsample): Conv2d(64, 64, kernel_size=(1, 1), stride=(2, 2), bias=False)
    (conv1): Conv2d(64, 64, kernel_size=(3, 3), stride=(2, 2), padding=(1, 1), bias=False)
    (norm2): GroupNorm(32, 64, eps=1e-05, affine=True)
    (conv2): Conv2d(64, 64, kernel_size=(3, 3), stride=(1, 1), padding=(1, 1), bias=False)
  )
  (ResNet_1_1): ResBlock(
    (norm1): GroupNorm(32, 64, eps=1e-05, affine=True)
    (droupout): Dropout(p=0.3, inplace=False)
    (relu): ReLU(inplace=True)
    (downsample): Conv2d(64, 64, kernel_size=(1, 1), stride=(2, 2), bias=False)
    (conv1): Conv2d(64, 64, kernel_size=(3, 3), stride=(2, 2), padding=(1, 1), bias=False)
    (norm2): GroupNorm(32, 64, eps=1e-05, affine=True)
    (conv2): Conv2d(64, 64, kernel_size=(3, 3), stride=(1, 1), padding=(1, 1), bias=False)
  )
  (ResNet_0): ResBlock(
    (norm1): GroupNorm(32, 64, eps=1e-05, affine=True)
    (droupout): Dropout(p=0.3, inplace=False)
    (relu): ReLU(inplace=True)
    (conv1): Conv2d(64, 64, kernel_size=(3, 3), stride=(1, 1), padding=(1, 1), bias=False)
    (norm2): GroupNorm(32, 64, eps=1e-05, affine=True)
    (conv2): Conv2d(64, 64, kernel_size=(3, 3), stride=(1, 1), padding=(1, 1), bias=False)
  )
  (ResNet_1): ResBlock(
    (norm1): GroupNorm(32, 64, eps=1e-05, affine=True)
    (droupout): Dropout(p=0.3, inplace=False)
    (relu): ReLU(inplace=True)
    (conv1): Conv2d(64, 64, kernel_size=(3, 3), stride=(1, 1), padding=(1, 1), bias=False)
    (norm2): GroupNorm(32, 64, eps=1e-05, affine=True)
    (conv2): Conv2d(64, 64, kernel_size=(3, 3), stride=(1, 1), padding=(1, 1), bias=False)
  )
  (ResNet_2): ResBlock(
    (norm1): GroupNorm(32, 64, eps=1e-05, affine=True)
    (droupout): Dropout(p=0.3, inplace=False)
    (relu): ReLU(inplace=True)
    (conv1): Conv2d(64, 64, kernel_size=(3, 3), stride=(1, 1), padding=(1, 1), bias=False)
    (norm2): GroupNorm(32, 64, eps=1e-05, affine=True)
    (conv2): Conv2d(64, 64, kernel_size=(3, 3), stride=(1, 1), padding=(1, 1), bias=False)
  )
  (ResNet_3): ResBlock(
    (norm1): GroupNorm(32, 64, eps=1e-05, affine=True)
    (droupout): Dropout(p=0.3, inplace=False)
    (relu): ReLU(inplace=True)
    (conv1): Conv2d(64, 64, kernel_size=(3, 3), stride=(1, 1), padding=(1, 1), bias=False)
    (norm2): GroupNorm(32, 64, eps=1e-05, affine=True)
    (conv2): Conv2d(64, 64, kernel_size=(3, 3), stride=(1, 1), padding=(1, 1), bias=False)
  )
  (ResNet_4): ResBlock(
    (norm1): GroupNorm(32, 64, eps=1e-05, affine=True)
    (droupout): Dropout(p=0.3, inplace=False)
    (relu): ReLU(inplace=True)
    (conv1): Conv2d(64, 64, kernel_size=(3, 3), stride=(1, 1), padding=(1, 1), bias=False)
    (norm2): GroupNorm(32, 64, eps=1e-05, affine=True)
    (conv2): Conv2d(64, 64, kernel_size=(3, 3), stride=(1, 1), padding=(1, 1), bias=False)
  )
  (ResNet_5): ResBlock(
    (norm1): GroupNorm(32, 64, eps=1e-05, affine=True)
    (droupout): Dropout(p=0.3, inplace=False)
    (relu): ReLU(inplace=True)
    (conv1): Conv2d(64, 64, kernel_size=(3, 3), stride=(1, 1), padding=(1, 1), bias=False)
    (norm2): GroupNorm(32, 64, eps=1e-05, affine=True)
    (conv2): Conv2d(64, 64, kernel_size=(3, 3), stride=(1, 1), padding=(1, 1), bias=False)
  )
  (ResNet_6): ResBlock(
    (norm1): GroupNorm(32, 64, eps=1e-05, affine=True)
    (droupout): Dropout(p=0.3, inplace=False)
    (relu): ReLU(inplace=True)
    (conv1): Conv2d(64, 64, kernel_size=(3, 3), stride=(1, 1), padding=(1, 1), bias=False)
    (norm2): GroupNorm(32, 64, eps=1e-05, affine=True)
    (conv2): Conv2d(64, 64, kernel_size=(3, 3), stride=(1, 1), padding=(1, 1), bias=False)
  )
  (ResNet_7): ResBlock(
    (norm1): GroupNorm(32, 64, eps=1e-05, affine=True)
    (droupout): Dropout(p=0.3, inplace=False)
    (relu): ReLU(inplace=True)
    (conv1): Conv2d(64, 64, kernel_size=(3, 3), stride=(1, 1), padding=(1, 1), bias=False)
    (norm2): GroupNorm(32, 64, eps=1e-05, affine=True)
    (conv2): Conv2d(64, 64, kernel_size=(3, 3), stride=(1, 1), padding=(1, 1), bias=False)
  )
  (ResNet_8): ResBlock(
    (norm1): GroupNorm(32, 64, eps=1e-05, affine=True)
    (droupout): Dropout(p=0.3, inplace=False)
    (relu): ReLU(inplace=True)
    (conv1): Conv2d(64, 64, kernel_size=(3, 3), stride=(1, 1), padding=(1, 1), bias=False)
    (norm2): GroupNorm(32, 64, eps=1e-05, affine=True)
    (conv2): Conv2d(64, 64, kernel_size=(3, 3), stride=(1, 1), padding=(1, 1), bias=False)
  )
  (ResNet_9): ResBlock(
    (norm1): GroupNorm(32, 64, eps=1e-05, affine=True)
    (droupout): Dropout(p=0.3, inplace=False)
    (relu): ReLU(inplace=True)
    (conv1): Conv2d(64, 64, kernel_size=(3, 3), stride=(1, 1), padding=(1, 1), bias=False)
    (norm2): GroupNorm(32, 64, eps=1e-05, affine=True)
    (conv2): Conv2d(64, 64, kernel_size=(3, 3), stride=(1, 1), padding=(1, 1), bias=False)
  )
  (ResNet_10): ResBlock(
    (norm1): GroupNorm(32, 64, eps=1e-05, affine=True)
    (droupout): Dropout(p=0.3, inplace=False)
    (relu): ReLU(inplace=True)
    (conv1): Conv2d(64, 64, kernel_size=(3, 3), stride=(1, 1), padding=(1, 1), bias=False)
    (norm2): GroupNorm(32, 64, eps=1e-05, affine=True)
    (conv2): Conv2d(64, 64, kernel_size=(3, 3), stride=(1, 1), padding=(1, 1), bias=False)
  )
  (ResNet_11): ResBlock(
    (norm1): GroupNorm(32, 64, eps=1e-05, affine=True)
    (droupout): Dropout(p=0.3, inplace=False)
    (relu): ReLU(inplace=True)
    (conv1): Conv2d(64, 64, kernel_size=(3, 3), stride=(1, 1), padding=(1, 1), bias=False)
    (norm2): GroupNorm(32, 64, eps=1e-05, affine=True)
    (conv2): Conv2d(64, 64, kernel_size=(3, 3), stride=(1, 1), padding=(1, 1), bias=False)
  )
  (ResNet_12): ResBlock(
    (norm1): GroupNorm(32, 64, eps=1e-05, affine=True)
    (droupout): Dropout(p=0.3, inplace=False)
    (relu): ReLU(inplace=True)
    (conv1): Conv2d(64, 64, kernel_size=(3, 3), stride=(1, 1), padding=(1, 1), bias=False)
    (norm2): GroupNorm(32, 64, eps=1e-05, affine=True)
    (conv2): Conv2d(64, 64, kernel_size=(3, 3), stride=(1, 1), padding=(1, 1), bias=False)
  )
  (ResNet_13): ResBlock(
    (norm1): GroupNorm(32, 64, eps=1e-05, affine=True)
    (droupout): Dropout(p=0.3, inplace=False)
    (relu): ReLU(inplace=True)
    (conv1): Conv2d(64, 64, kernel_size=(3, 3), stride=(1, 1), padding=(1, 1), bias=False)
    (norm2): GroupNorm(32, 64, eps=1e-05, affine=True)
    (conv2): Conv2d(64, 64, kernel_size=(3, 3), stride=(1, 1), padding=(1, 1), bias=False)
  )
  (ResNet_14): ResBlock(
    (norm1): GroupNorm(32, 64, eps=1e-05, affine=True)
    (droupout): Dropout(p=0.3, inplace=False)
    (relu): ReLU(inplace=True)
    (conv1): Conv2d(64, 64, kernel_size=(3, 3), stride=(1, 1), padding=(1, 1), bias=False)
    (norm2): GroupNorm(32, 64, eps=1e-05, affine=True)
    (conv2): Conv2d(64, 64, kernel_size=(3, 3), stride=(1, 1), padding=(1, 1), bias=False)
  )
  (ResNet_15): ResBlock(
    (norm1): GroupNorm(32, 64, eps=1e-05, affine=True)
    (droupout): Dropout(p=0.3, inplace=False)
    (relu): ReLU(inplace=True)
    (conv1): Conv2d(64, 64, kernel_size=(3, 3), stride=(1, 1), padding=(1, 1), bias=False)
    (norm2): GroupNorm(32, 64, eps=1e-05, affine=True)
    (conv2): Conv2d(64, 64, kernel_size=(3, 3), stride=(1, 1), padding=(1, 1), bias=False)
  )
  (ResNet_16): ResBlock(
    (norm1): GroupNorm(32, 64, eps=1e-05, affine=True)
    (droupout): Dropout(p=0.3, inplace=False)
    (relu): ReLU(inplace=True)
    (conv1): Conv2d(64, 64, kernel_size=(3, 3), stride=(1, 1), padding=(1, 1), bias=False)
    (norm2): GroupNorm(32, 64, eps=1e-05, affine=True)
    (conv2): Conv2d(64, 64, kernel_size=(3, 3), stride=(1, 1), padding=(1, 1), bias=False)
  )
  (ResNet_17): ResBlock(
    (norm1): GroupNorm(32, 64, eps=1e-05, affine=True)
    (droupout): Dropout(p=0.3, inplace=False)
    (relu): ReLU(inplace=True)
    (conv1): Conv2d(64, 64, kernel_size=(3, 3), stride=(1, 1), padding=(1, 1), bias=False)
    (norm2): GroupNorm(32, 64, eps=1e-05, affine=True)
    (conv2): Conv2d(64, 64, kernel_size=(3, 3), stride=(1, 1), padding=(1, 1), bias=False)
  )
  (norm0): GroupNorm(32, 64, eps=1e-05, affine=True)
  (norm1): GroupNorm(32, 64, eps=1e-05, affine=True)
  (relu0): ReLU(inplace=True)
  (relu1): ReLU(inplace=True)
  (pool0): AdaptiveAvgPool2d(output_size=(1, 1))
  (pool1): AdaptiveAvgPool2d(output_size=(1, 1))
  (linear): Linear(in_features=64, out_features=4, bias=True)
  (dropout): Dropout(p=0.3, inplace=False)
  (flat): Flatten()
)
Number of parameters: 1645828
epoch:1
Train loss : 1.4495	Train SE : 0.1797	Train SP : 0.0896	Train Score : 0.1347	Train Acc : 0.1344
Val loss : 1.4559	Val SE : 0.1377	Val SP : 0.1006	Val Score : 0.1191	Val Acc : 0.1166
best icbhi score is 0.1191
[[ 157  106   66 1232]
 [  55   35   38  532]
…
